data.pth (torch, 5738 bytes, 6 tensors)

l1.weight f4 [8, 56]
0	0x3f0db450	0.5535326
1	0x3d4a2fdc	0.04936205
2	0xbe4fabb4	-0.20280343
3	0xbec5d030	-0.38635397
4	0x3eb08dc2	0.34483153
5	0x3ee6657e	0.44999307
6	0xbe1e53f3	-0.15461712
7	0x3f5df8fa	0.86708033
8	0xbee0189a	-0.4376877
9	0xbf40bc0c	-0.75286937
10	0xbe11eb4a	-0.14249912
11	0xbe84f271	-0.25966218
12	0xbe73b06a	-0.23797765
13	0xbe4d7507	-0.20064174
14	0x3c2c9bd7	0.010535202
15	0x3f6dad11	0.92842203
16	0x3f42c9e7	0.7608933
17	0xbe7c902a	-0.24664369
18	0x3ef528c8	0.47882676
19	0x3f1d2160	0.6137905
20	0x3f170058	0.589849
21	0x3f2b99f9	0.6703182
22	0x3e99aa0f	0.30012557
23	0xbe9ab0af	-0.30212924
24	0xbf156efb	-0.5837247
25	0xbe81e97a	-0.2537344
26	0xbef446e3	-0.47710332
27	0x3eee10b6	0.46497124
28	0x3e8d18a4	0.27557862
29	0x3ed69277	0.4190862
30	0x3dc8a82f	0.097977035
31	0x3f153bfa	0.5829464
32	0xbf6b624a	-0.9194685
33	0x3db1bd62	0.086787
34	0xbe3b28e4	-0.18277317
35	0xbe193d67	-0.1496483
36	0x3ed701ac	0.41993463
37	0x3d6f7aed	0.05846684
38	0x3e932db4	0.28745806
39	0xbebbd13e	-0.36683077
40	0xbdd15dba	-0.10222955
41	0xbe865849	-0.2623923
42	0xbde9e00f	-0.11419689
43	0x3f6792c2	0.9045831
44	0xbac66da2	-0.0015138874
45	0x3ec74e0e	0.38926739
46	0xbdf5493d	-0.1197686
47	0xbedb8da7	-0.4288151
48	0xbe1cb473	-0.15303211
49	0x3db891dc	0.090121955
50	0x3d1eb167	0.038743403
51	0xbe18e4b9	-0.14931001
52	0xbebdf485	-0.37100616
53	0xbe86559f	-0.262372
54	0x3f82e48a	1.0225995
55	0xbe858594	-0.26078475
56	0x3f1c0651	0.6094714
57	0xbea0580a	-0.31317168
58	0x3d660de2	0.056165583
59	0x3f0e0462	0.5547544
60	0xbe5f734a	-0.21821323
61	0x3e80b953	0.2514139
62	0xbf211efb	-0.629379
63	0xbf4cce7a	-0.8000256
64	0xbecce33d	-0.4001712
65	0x3f147cc8	0.580029
66	0x3c04a3e2	0.008095713
67	0x3f23d55e	0.6399745
68	0xbe118a93	-0.14213018
69	0x3bea34d5	0.0071474114
70	0xbed75474	-0.4205662
71	0xbf665413	-0.8997204
72	0x3f441ec2	0.7660943
73	0x3ece90d5	0.40344873
74	0x3d7099ee	0.05874055
75	0x3f17d439	0.593082
76	0x3e15a8d2	0.14615181
77	0x3d9ef003	0.07760622
78	0x3eafd0a6	0.34338874
79	0x3f1867ee	0.59533584
80	0x3f28a5b7	0.6587786
81	0xbf198ad8	-0.59977484
82	0xbf19b206	-0.6003727
83	0xbd2044ad	-0.039127994
84	0xbf014d89	-0.50508934
85	0x3ea74a0b	0.32673678
86	0xbe565dc6	-0.20934209
87	0xbc8142b5	-0.015778879
88	0xbea0e737	-0.31426403
89	0x3f0ed7ca	0.5579802
90	0x3e04a683	0.12954144
91	0x3f1ed4c2	0.6204339
92	0xbf1869db	-0.5953652
93	0xbe40fc1d	-0.18846174
94	0x3f498d18	0.78730917
95	0xbf10b3e4	-0.5652449
96	0xbeaec894	-0.34137404
97	0x3f0494e7	0.51789707
98	0xbe58ed1b	-0.21184199
99	0x3f67da0d	0.90567094
100	0x3d7b611c	0.061371908
101	0xbe8ed651	-0.27897885
102	0xbf0c9aed	-0.549239
103	0xbdfa2ec9	-0.12215955
104	0xbe6e4776	-0.23269448
105	0x3e7b4d18	0.24541128
106	0x3f212652	0.629491
107	0xbe47109f	-0.19439934
108	0x3ee39961	0.44452956
109	0x3f1bb826	0.60827863
110	0x3e493259	0.19648112
111	0x3e2d622b	0.1693198
112	0xbe516895	-0.20450051
113	0x3f2373b5	0.6384843
114	0xbdaa97cf	-0.083297364
115	0xbe613719	-0.21993674
116	0x3f31eefc	0.69505286
117	0x3de9fba3	0.11424949
118	0x3f42bd9d	0.76070577
119	0x3f6a9dea	0.9164721
120	0x3c4907a3	0.012269887
121	0xbe7a0758	-0.24416864
122	0x3e70fa31	0.2353294
123	0xbec3b00f	-0.3822026
124	0x3ef4bec0	0.4780178
125	0xbe7e9ffc	-0.24865717
126	0xbe285b41	-0.1644106
127	0x3f23bd56	0.6396078
128	0xbe83f205	-0.25770584
129	0xbe8dfa6d	-0.27730122
130	0x3f48cbc1	0.78435904
131	0x3e0d2577	0.13783823
132	0x3f5d057e	0.86336505
133	0x3f20bd7e	0.6278914
134	0xbc8a74a2	-0.016901318
135	0xbe224403	-0.15846257
136	0xbe8c3316	-0.27382725
137	0x3ef898b1	0.48553994
138	0x3f00dc3e	0.5033606
139	0x3f407135	0.7517274
140	0x3f100aee	0.5626668
141	0xbe10b62a	-0.1413199
142	0x3f15f8dc	0.58582854
143	0x3c8242df	0.015901027
144	0x3bec1ca6	0.0072055636
145	0xbe57be49	-0.21068682
146	0x3e736a69	0.23771061
147	0xbea6cba1	-0.32577232
148	0x3f00bbb7	0.5028643
149	0xbdd2cfd4	-0.10293546
150	0xbe8e3d85	-0.2778131
151	0xbc8c615f	-0.017136274
152	0x3f06a150	0.52589893
153	0xbe39e228	-0.18152678
154	0x3f1cac82	0.61200726
155	0xbf73b1dd	-0.9519327
156	0x3e041421	0.12898304
157	0x3f1bf316	0.60917795
158	0x3f4e56d3	0.80601233
159	0xbd0be2ab	-0.034151714
160	0xbda03bcf	-0.078239076
161	0xbac322b7	-0.0014887665
162	0xbe596354	-0.21229297
163	0xbdeba280	-0.11505604
164	0xbea209bf	-0.3164806
165	0xbe8e5ef5	-0.2780682
166	0x3f4441ef	0.76663107
167	0xbcd62ccf	-0.026144413
168	0x3d31dcd8	0.043423504
169	0xbf2a51bd	-0.6653097
170	0x3e33e196	0.17566523
171	0x3e318ab2	0.17338064
172	0xbe28b249	-0.1647426
173	0x3db5a788	0.08869845
174	0x3ed23868	0.4105866
175	0x3f939380	1.1529388
176	0x3f018720	0.5059681
177	0x3e220991	0.15823962
178	0x3e7fa70a	0.24966064
179	0xbf1dae1f	-0.6159381
180	0xbdca8df9	-0.098903604
181	0x3e1d829e	0.15381858
182	0x3e925e65	0.28587642
183	0x3f704480	0.9385452
184	0x3cdc5e74	0.026900508
185	0xbf148bb7	-0.5802569
186	0xbecc6cb2	-0.39926678
187	0xbd7427e0	-0.05960834
188	0xbecc56cd	-0.39909974
189	0xbecc4a9e	-0.39900678
190	0xbd82c607	-0.06385427
191	0x3f1261f5	0.5718072
192	0xbdf685b6	-0.12037222
193	0xbf2c82d0	-0.67387104
194	0x3edb1709	0.42791012
195	0xbecc5751	-0.39910367
196	0x3d447b72	0.04796929
197	0xbdd3e9d4	-0.103473336
198	0xbe37f54c	-0.17964667
199	0x3de1a870	0.11018455
200	0x3f67c0bc	0.90528464
201	0x3f56fe9f	0.8398227
202	0x3e8afe4f	0.27147147
203	0xbea9fda2	-0.3320132
204	0x3dadc0f6	0.0848407
205	0x3e8e79a1	0.2782717
206	0x3edc5254	0.4303156
207	0x3f20ff27	0.6288933
208	0xbd1daf22	-0.038497098
209	0x3f303997	0.68837875
210	0xbdacb2ab	-0.08432516
211	0xbe8aa628	-0.27079892
212	0x3eec2eba	0.461294
213	0xbde9e29e	-0.11420177
214	0x3ee0cb65	0.43905178
215	0x3f5c6b3d	0.8610113
216	0x3ee7ad17	0.45249245
217	0x3e95d85a	0.29266626
218	0x3f573fa3	0.84081477
219	0x3eb92d21	0.36167243
220	0x3f80c145	1.0058981
221	0x3fa63e82	1.2987826
222	0x3eb5b85a	0.35492212
223	0x3e1c5c02	0.15269473
224	0x3ee61543	0.44938096
225	0x3f0becba	0.5465809
226	0x3ec9fa00	0.39448547
227	0x3ead5240	0.33851814
228	0xbe8e46ec	-0.27788484
229	0xbe8eea4e	-0.27913135
230	0x3f1a64b1	0.6030989
231	0x3efaa4d8	0.4895389
232	0x3f448d89	0.76778466
233	0x3e9135ad	0.28361264
234	0x3ec11c6c	0.37716997
235	0xbe7f569c	-0.24935383
236	0x3ede9fee	0.43481392
237	0x3eb1a62b	0.3469709
238	0xbe1a710e	-0.1508219
239	0x3f1b9b6b	0.60784024
240	0x3f88982b	1.0671438
241	0xbecb82af	-0.3974814
242	0xbef2646d	-0.47342244
243	0x3ed65a7c	0.4186591
244	0xbf11c541	-0.5694161
245	0xbf0a5bb0	-0.54046154
246	0xbef51826	-0.47869986
247	0x3f21435f	0.62993425
248	0x3e6c6d82	0.23088649
249	0x3f1c6d8a	0.61104643
250	0x3f528261	0.8223019
251	0xbedcc302	-0.4311753
252	0x3f131190	0.57448673
253	0x3e4cd7c3	0.20004182
254	0x3f08f193	0.53493613
255	0xbf0f7a86	-0.5604633

l1.bias f4 [8]
0	0x3f6f2f17	0.9343123
1	0x3f6730ee	0.90309036
2	0x3f27f465	0.6560729
3	0x3ecbad66	0.3978073
4	0x3f4457ff	0.7669677
5	0x3ed10b44	0.40828907
6	0x3f1af2fa	0.60527
7	0x3f150191	0.58205515

l2.weight f4 [8, 8]
0	0x3f4055b1	0.75130755
1	0xbf135faf	-0.57567877
2	0x3f7e4bdd	0.9933451
3	0xbe9e11b9	-0.30872896
4	0x3e36ca75	0.17850669
5	0xbf591d7a	-0.848106
6	0x3fc30e33	1.5238708
7	0x3fbc3570	1.4703808
8	0x3f26da36	0.65176713
9	0x3f56b09b	0.8386323
10	0x3f067220	0.5251789
11	0xbfb8fd79	-1.4452354
12	0x3ea1a5f9	0.3157194
13	0xbf89a7b7	-1.0754308
14	0x3f6235e7	0.883635
15	0x3f4f3216	0.809358
16	0x3fa8d819	1.3190948
17	0x3fb5d14c	1.4204497
18	0x3e9bfa84	0.30464566
19	0x3f1f3629	0.62192017
20	0x3c8c83a1	0.01715261
21	0x3fc60e3c	1.5473094
22	0xbf83bb2b	-1.0291494
23	0xbeb71a9c	-0.3576249
24	0xbf1ee498	-0.62067556
25	0xbf93fa10	-1.1560688
26	0x3f061865	0.52380973
27	0x3f7ddf86	0.99169195
28	0x3fe2e4c4	1.7726064
29	0x3e214581	0.1574917
30	0xbec8b89c	-0.39203346
31	0x3f6ccb7b	0.92497987
32	0xbf8bf838	-1.0935125
33	0x3f8fe4a3	1.1241649
34	0xbf70c651	-0.94052607
35	0x3e8163ff	0.25271603
36	0xbeb96fb9	-0.3621805
37	0x3f664ac6	0.89957845
38	0x3d344a3e	0.044016115
39	0x3fc96892	1.5735037
40	0x3e460a95	0.19339974
41	0xbec00e34	-0.37510836
42	0x3f99be96	1.2011287
43	0xbf3ef737	-0.7459597
44	0x3eb4db24	0.3532344
45	0x3fd09e1c	1.6298251
46	0xbecdc953	-0.4019266
47	0x3f37445f	0.715887
48	0x3f48deed	0.7846516
49	0xbf3e01ff	-0.74221796
50	0x3f5834d5	0.84455615
51	0xbe7b5ee3	-0.24547915
52	0x3f7e70f6	0.99391115
53	0xbebba08b	-0.36645922
54	0xbfc11d5c	-1.5087085
55	0x3f93c004	1.1542974
56	0xbf02c0f2	-0.5107566
57	0x3f9bc5f4	1.2169785
58	0xbf389d1c	-0.7211473
59	0x3ed7d47c	0.421543
60	0x3fc3c670	1.5294933
61	0xbf92b315	-1.1460901
62	0xbde08645	-0.1096311
63	0x3e8037bc	0.25042522

l2.bias f4 [8]
0	0x3f3fbc4e	0.74896705
1	0x3e9628bb	0.2932795
2	0x3f099ad7	0.5375189
3	0x3ee4471e	0.44585508
4	0x3f09bb17	0.538011
5	0xbc54a29f	-0.012978225
6	0xbe0d6b1f	-0.13810395
7	0x3ea8e9c0	0.32990837

l3.weight f4 [12, 8]
0	0xbfdcb4cd	-1.7242676
1	0xbf742e8d	-0.9538353
2	0xbeb52123	-0.35376844
3	0x3f144c5d	0.5792902
4	0xbebd2819	-0.36944655
5	0xbfee1281	-1.8599397
6	0xbfc35fbe	-1.5263593
7	0x3f852f17	1.0404996
8	0xbea5c6e7	-0.32378313
9	0xbf6ce366	-0.9253448
10	0xbf9a7889	-1.2068034
11	0x3e918d35	0.28428045
12	0x3e883bd6	0.2660815
13	0xbf408436	-0.7520174
14	0x3f520820	0.8204365
15	0x3e335e8e	0.17516539
16	0xbf9af258	-1.2105207
17	0xbf62a217	-0.8852858
18	0x3f6d1b59	0.92619854
19	0xbfe7e7a7	-1.811757
20	0xbf138ae8	-0.5763383
21	0x3f4cac2b	0.7995021
22	0xbef4295f	-0.47687814
23	0xbfa7dd2c	-1.3114371
24	0xbc475146	-0.012165373
25	0xbd2c1f67	-0.042022135
26	0xc00ac39f	-2.1681898
27	0x3ecdae76	0.40172166
28	0xbfc68cea	-1.5511754
29	0x3ed3832b	0.4131101
30	0x3f27bd6a	0.655234
31	0xbf575d05	-0.8412631
32	0x3f0b09e8	0.5431199
33	0xbfaf2003	-1.3681644
34	0xc00c8149	-2.195391
35	0x3f70079f	0.9376163
36	0xbfe9f98e	-1.8279283
37	0xc01a0d0c	-2.4070463
38	0x3cdf1af1	0.027234526
39	0x3f0f58da	0.5599495
40	0xbee3a730	-0.4446349
41	0xbf8e3edf	-1.1112937
42	0xbc82c40f	-0.015962629
43	0x3ef5a46d	0.4797701
44	0xc010040a	-2.2502465
45	0x3eb88fca	0.36047202
46	0x3f3f0861	0.7462216
47	0xbfba59d3	-1.4558662
48	0x3f1fe69a	0.62461245
49	0x3ea916e9	0.33025292
50	0xbc19a90f	-0.009378686
51	0xbfbbe5aa	-1.4679463
52	0xbfac72c7	-1.3472527
53	0xc04a068c	-3.1566496
54	0xbfd3c05d	-1.654308
55	0xbf48f924	-0.7850516
56	0xbf017123	-0.5056326
57	0xbfd86547	-1.6905907
58	0xbd7a0c13	-0.06104667
59	0x3f59d97f	0.850975
60	0x3ef1c315	0.47219148
61	0x3ea4de6d	0.32200947
62	0xc00f2ba2	-2.2370381
63	0xbfc27743	-1.5192646
64	0x3f4467bc	0.76720786
65	0x3f332a0d	0.6998604
66	0xbf274e8c	-0.6535423
67	0xbfa37e14	-1.2772851
68	0xbf95cf0f	-1.1703814
69	0x3f1812de	0.5940379
70	0xbf9e50f9	-1.2368461
71	0xbf7f615f	-0.9975795
72	0xbfe6bfe2	-1.8027308
73	0xbfd77917	-1.6833829
74	0x3f177866	0.5916809
75	0xc0098d46	-2.1492476
76	0x3fa3917e	1.2778776
77	0xbfb23846	-1.3923423
78	0xbf08b906	-0.53407323
79	0x3d782bbe	0.06058859
80	0xbfa272b7	-1.2691258
81	0x3ec1cc43	0.37851152
82	0x3f1e718f	0.61892027
83	0xbf38713e	-0.72047794
84	0xbfed78ff	-1.855255
85	0xbfbb483c	-1.4631419
86	0x3ede1b61	0.43380263
87	0x3f0b5c36	0.5443758
88	0xbecbd9d0	-0.39814615
89	0x3f09428a	0.53617156
90	0xbfb562cd	-1.4170777
91	0xbf6cab3b	-0.92448777
92	0x3fa6132d	1.2974602
93	0xbf97c1a5	-1.1855971
94	0xbfc6f544	-1.5543599
95	0x3f001744	0.500355

l3.bias f4 [12]
0	0xbc3eac11	-0.0116377035
1	0xbef0dc35	-0.47043005
2	0x3ec1be10	0.3784032
3	0xbf154088	-0.5830159
4	0x3d59d559	0.05318198
5	0xbea260af	-0.3171439
6	0x3e7e0ea5	0.24810274
7	0x3c2e1b10	0.010626569
8	0x3c120ea8	0.008914627
9	0x3ee51a41	0.44746593
10	0xbe6a60a4	-0.22888428
11	0xbf0025ef	-0.5005788
