datasets/jardata.pth (torch, 27976 bytes, 6 tensors)

l1.weight f4 [8, 494]
-0.539135 0.08236773 0.36550918 1.4521148 -0.4902188 0.5833984 0.6012972 -0.49971572
0.45380822 0.37297198 0.8619038 -0.5130246 0.24257514 0.80094725 0.21941489 1.1257917
0.9579486 0.116051085 0.29347676 0.2296419 -0.88934267 -1.3109818 0.42330787 -0.09507152
0.25488442 -0.5408967 -0.63623476 -0.16662458 -0.46636987 0.54705364 -0.09119904 -0.91994435
-0.051823687 -0.107978225 0.55746096 0.6692133 0.14267656 1.2747918 -0.8104128 -0.37863675
0.24272606 0.13269298 -0.53533125 0.8683382 -0.22068802 0.7069749 0.07562409 -0.78749126
-0.3724586 0.9424977 0.802661 -0.14032069 -0.69560236 0.5070991 1.0734128 -0.28407362
-0.35490727 -0.59284055 0.36693916 0.9397919 -0.3389403 -0.6163298 1.9107186 0.35127833
-0.5901344 0.103511065 0.26519686 0.08227112 -0.3671101 -0.2940705 0.07824333 1.3957275
-0.28271025 -0.5583421 0.28042686 0.19539222 -0.4269322 -0.3033572 -0.1039931 -0.65913254
0.047320366 0.29223153 0.7441272 -0.55676925 -0.33806014 -0.039534066 -0.72964627 1.1599079
-0.29528454 0.6268873 0.21016301 -0.48547646 0.94471365 0.27339944 0.12256698 -0.05921735
1.102395 -0.29545897 -0.29921326 -0.42190048 -0.6928876 -0.79390424 0.43179458 -0.1913239
-0.0797368 -0.66258115 1.0960782 0.71724856 -0.34414694 -0.6157687 0.8642941 0.15752971
-0.3153452 1.108765 -0.4101641 0.9785226 0.8374091 1.2762014 0.7828471 1.9579749
0.7845088 0.6164204 -0.121805064 -0.86925155 0.9699862 1.1259644 0.13582356 0.98045903
0.99465275 -0.26393652 0.37328348 1.9049808 0.1726235 -0.17478618 0.5344619 1.541998
0.60089 0.3346949 -0.059218965 0.71827215 -0.40758067 -1.3320353 -0.39876488 0.19098553
0.4796465 1.6155715 -0.39674032 0.59676206 0.1994452 0.059526503 0.69013584 -0.5893162
0.49924478 -0.8184135 0.34551373 0.41676185 0.38193563 0.59621304 -0.22840954 0.51919997
0.7255167 0.6148361 0.087765545 -0.91823584 -0.6138224 -0.29205024 -0.09347808 0.50457025
1.2557197 -0.38324085 0.3459956 1.0360703 0.52422255 -0.23605062 0.4243306 -0.24600849
0.55087054 0.32785353 0.7733113 -0.6001581 0.3668943 0.027359247 -0.6468362 0.46682522
-0.28808093 -0.184909 1.9526813 -0.2759026 0.55209297 0.23582935 0.4922871 -0.24196717
-0.14108436 -0.43652198 0.26220122 0.514785 0.5839058 0.3803901 -0.14076705 -0.5583025
0.9818702 0.11017606 -0.48234496 -0.53439987 0.0001757939 0.04193946 0.087489314 0.45264912
-0.18773067 1.3037568 0.3139352 0.8600467 1.6340076 -0.022321135 1.040056 -0.820344
0.4694353 0.9040211 -0.72444147 0.2183165 0.09199917 0.16362527 -0.17772818 -0.29371494
0.50381047 0.6773418 0.26709494 -1.2946615 -0.83112806 -0.5105996 -0.002680722 2.620104
0.7244973 -0.3336099 0.24242516 0.038245916 0.98433894 0.5499305 0.8917121 -1.2089382
-0.077423945 0.49474943 -0.68848896 -0.5306857 -0.021504583 0.07371638 -0.11941267 -0.2758061
0.8745351 0.68856496 -0.4589331 -0.61318386 -0.56937313 0.69629323 0.012180803 -0.2686503
00000000: c004 0abf 6ab0 a83d 0524 bb3e e6de b93f
00000010: f5fd fabe 9959 153f 9dee 193f bdda ffbe
00000020: 8d59 e83e 2ff6 be3e baa5 5c3f 9555 03bf
00000030: 9e65 783e e10a 4d3f 4cae 603e f119 903f
00000040: 1f3c 753f 31ac ed3d 9642 963e 3f27 6b3e
00000050: f6ab 63bf 40ce a7bf cfbb d83e dbb4 c2bd
00000060: 3680 823e 3578 0abf 48e0 22bf a29f 2abe
00000070: 08c8 eebe b50b 0c3f 90c6 babd 7981 6bbf
00000080: 1345 54bd b023 ddbd c3b5 0e3f 9051 2b3f
00000090: ce19 123e 612c a33f 3777 4fbf addc c1be
000000a0: 2e8d 783e abe0 073e 780b 09bf 6a4b 5e3f
000000b0: 0afc 61be 4ffc 343f cee0 9a3d 0799 49bf
000000c0: e5b2 bebe 8747 713f 317b 4d3f 3ab0 0fbe
000000d0: ff12 32bf 3fd1 013f 9765 893f 1972 91be
000000e0: 68b6 b5be 66c4 17bf 73df bb3e 3496 703f
000000f0: 9589 adbe cac7 1dbf 6d92 f43f c1da b33e
00000100: 0c13 17bf 9cfd d33d e2c7 873e c37d a83d
00000110: dbf5 bbbe 6990 96be 0a3e a03d 33a7 b23f
00000120: 66bf 90be 82ef 0ebf 1c94 8f3e e614 483e
00000130: db96 dabe a351 9bbe 56fa d4bd e9bc 28bf
00000140: 00d3 413d 5f9f 953e 1f7f 3e3f 6e88 0ebf
00000150: 3816 adbe 79ee 21bd 19ca 3abf dd77 943f
00000160: 892f 97be b07b 203f f934 573e 5f90 f8be
00000170: c1d8 713f 03fb 8b3e 6604 fb3d e48d 72bd
00000180: 481b 8d3f 6646 97be 7b32 99be 5703 d8be
00000190: 1561 31bf 4f3d 4bbf 2e14 dd3e 6aea 43be
000001a0: 0c4d a3bd eb9e 29bf 4a4c 8c3f 9a9d 373f
000001b0: 0734 b0be 04a3 1dbf 6142 5d3f 784f 213e
000001c0: ed74 a1be 03ec 8d3f 0701 d2be 7580 7a3f
000001d0: 7160 563f 915a a33f ab68 483f ec9e fa3f
000001e0: 92d5 483f bacd 1d3f ef74 f9bd 4587 5ebf
000001f0: 0451 783f 9a1f 903f 5515 0b3e 5dff 7a3f
00000200: 90a1 7e3f b022 87be 031f bf3e 69d6 f33f
00000210: 37c4 303e 26fb 32be 7fd2 083f 3160 c53f
00000220: edd3 193f 215d ab3e 968f 72bd afe0 373f
00000230: 6aae d0be 2280 aabf e92a ccbe b691 433e
00000240: 3a94 f53e 0ccb ce3f 8c21 cbbe 66c5 183f
00000250: 5d3b 4c3e 10d2 733d beac 303f 6ddd 16bf
00000260: 039d ff3e 8c83 51bf 2de7 b03e cf61 d53e
00000270: 118d c33e 6ba1 183f 31e4 69be 4aea 043f
00000280: 76bb 393f e665 1d3f 6cbe b33d 8111 6bbf
00000290: 7723 1dbf 9c87 95be 7071 bfbd 842b 013f
000002a0: 6cbb a03f 2538 c4be 5626 b13e f49d 843f
000002b0: 7333 063f 41b7 71be dc41 d93e a6e9 7bbe
000002c0: da05 0d3f 6bdc a73e bbf7 453f f6a3 19bf
000002d0: 92d9 bb3e 8020 e03c 0f97 25bf b703 ef3e
000002e0: 587f 93be c958 3dbe 76f1 f93f 1b43 8dbe
000002f0: f755 0d3f 407d 713e 0e0d fc3e 3ec6 77be
00000300: 6b78 10be cf7f dfbe 3d3f 863e f3c8 033f
00000310: da7a 153f 7ec2 c23e 3d25 10be eaec 0ebf
00000320: d85b 7b3f fca3 e13d ebf5 f6be 6ece 08bf
00000330: 5155 3839 b6c8 2b3d 992d b33d a0c1 e73e
00000340: 783c 40be 81e1 a63f 1dbc a03e 052c 5c3f
00000350: 2927 d13f d0da b6bc 8e20 853f 1002 52bf
00000360: d359 f03e ed6d 673f ff74 39bf 5c8e 5f3e
00000370: 106a bc3d 628d 273e 60fe 35be ce61 96be
00000380: b9f9 003f 4666 2d3f abc0 883e 78b7 a5bf
00000390: cfc4 54bf a8b6 02bf 0daf 2fbb c9af 2740
000003a0: a878 393f ebce aabe 4d3e 783e c0a7 1c3d
000003b0: a3fd 7b3f 3fc8 0c3f 3f47 643f 7dbe 9abf
000003c0: 7290 9ebd cc4f fd3e d040 30bf 05db 07bf
000003d0: 612a b0bc 9df8 963d a18e f4bd 7536 8dbe
000003e0: 88e1 5f3f cb45 303f 47f9 eabe 9ef9 1cbf
000003f0: 70c2 11bf 4640 323f fe91 473c 888c 89be

l1.bias f4 [8]
0.6468818 0.6009444 0.48702723 0.91747695 0.7348947 -0.041676056 0.6227306 0.94349504
00000000: 0c9a 253f 7ed7 193f a25b f93e c5df 6a3f
00000010: 0f22 3c3f 83b4 2abd 466b 1f3f e488 713f

l2.weight f4 [8, 8]
-0.17185198 0.985708 -2.1273987 0.022483306 1.816335 -0.0922015 0.059680134 1.2167377
2.428716 0.88250595 -1.2390927 -0.6148512 1.2247938 -0.036452252 -0.12963526 3.2661686
-0.98254937 -2.0087345 0.5456753 0.75060755 1.15805 -0.030793497 1.9855814 -0.40301865
-0.17597723 -0.14304338 1.5098865 2.0362744 2.278156 0.32476208 -1.0456448 -1.731022
-0.85882336 2.4704626 1.7020273 0.4149719 -0.32311475 -0.050160296 1.8618269 0.59990734
1.4263285 0.3702224 -0.9431503 1.3171881 -0.9230402 -0.12069695 1.5701509 -1.3754799
1.3709958 -1.8067226 0.84324324 1.968199 -0.116039276 0.23261327 -0.6055752 -0.0018911533
1.1024079 -1.2790928 -1.0102812 -0.8085423 1.7582844 -0.08637359 1.8461394 -0.6303867
00000000: f7f9 2fbe 5c57 7c3f 4d27 08c0 e92e b83c
00000010: aa7d e83f 24d4 bcbd 2873 743d 10be 9b3f
00000020: 1570 1b40 e9eb 613f 979a 9ebf e366 1dbf
00000030: 0bc6 9c3f f54e 15bd 1bbf 04be e808 5140
00000040: 5b88 7bbf 1b8f 00c0 60b1 0b3f d127 403f
00000050: fb3a 943f a542 fcbc 8827 fe3f 7658 cebe
00000060: 6033 34be f779 12be f643 c13f 5252 0240
00000070: 4fcd 1140 3747 a63e b0d7 85bf 2192 ddbf
00000080: d9db 5bbf 0f1c 1e40 08dc d93f 3277 d43e
00000090: 4c6f a5be e274 4dbd 5850 ee3f 8793 193f
000000a0: ef91 b63f ca8d bd3e 4c72 71bf 9f99 a83f
000000b0: 5d4c 6cbf f62f f7bd b4fa c83f ba0f b0bf
000000c0: ca7c af3f b042 e7bf cade 573f f2ed fb3f
000000d0: 00a6 edbd 2c32 6e3e fa06 1bbf 93e0 f7ba
000000e0: b41b 8d3f 50b9 a3bf e550 81bf a1fc 4ebf
000000f0: 770f e13f a3e4 b0bd 4c4e ec3f 0661 21bf

l2.bias f4 [8]
0.5600109 0.9042591 0.61160344 0.32982436 0.45632344 -0.19647795 1.458768 -0.56304485
00000000: e05c 0f3f 867d 673f 0b92 1c3f bdde a83e
00000010: 3aa3 e93e 8431 49be e9b8 ba3f b523 10bf

l3.weight f4 [47, 8]
-2.345337 -1.3149438 0.9099918 -1.6578798 1.2196848 -1.2879622 -2.58309 -2.377147
0.42918208 0.10889474 -0.88778603 0.52611053 -4.6205463 0.43827346 0.024286408 0.10225616
0.44154164 0.72540575 -3.1449747 -4.06226 -1.3918053 0.1623268 0.23735335 -2.061667
-0.2770042 -0.24874075 -0.061697423 0.6723215 -1.070427 -0.32386568 0.16639821 0.2360025
-0.53918165 0.18770783 0.86522996 -0.42844075 0.8207512 -4.494934 -2.842619 -2.724963
-1.8936894 0.111671485 -0.028107483 -0.3143221 -0.27081683 -0.1362279 0.56849813 -0.7133023
0.5513822 -1.0420682 0.5989181 -0.15658122 0.43125626 -2.1850996 -2.1212776 0.97800213
-1.4132283 -0.96797734 0.8363205 -3.5556636 0.28832585 0.72892535 -0.54554826 0.07569002
0.15536468 0.8419328 -3.8771117 -0.61390305 0.44515797 -1.1121409 -4.3589087 -0.07293923
-1.346398 -3.587403 0.97880596 0.8540432 -0.36813098 -3.4295926 0.3456607 1.0443463
1.151786 0.5896316 -2.7297094 0.46316993 -1.3469293 -1.3782618 -1.410341 0.47400814
-3.9339318 -1.7068318 -3.472416 0.8384548 -0.0036191521 0.5716529 0.7597018 -1.62782
-0.08551513 -0.17054161 -3.9225047 0.5984089 0.2273883 -0.6235416 -0.4428883 -2.717383
0.4230269 0.2879978 -4.9869614 -4.5585766 0.485572 0.70684975 -0.34500057 -2.2939978
-0.38189822 0.044595394 -0.32275084 -3.1440966 0.8021538 0.44049305 -4.1462064 -0.92069954
-0.30119187 0.9512424 -2.4808557 -0.20137788 -2.1462793 -2.6921363 0.6862309 -0.41870666
-2.717298 -4.1912465 0.45830846 1.1979896 -0.26453385 -3.5297124 1.298277 -2.5264213
0.023576554 -2.431699 -2.3038647 0.92143923 0.6681887 -2.2513838 -0.32432783 -1.4815351
-5.2297997 -1.4574741 0.658292 0.78519285 1.0492405 -5.4554086 -0.2791714 0.061910607
0.6931443 1.0864369 -3.8117566 -2.153525 -3.2509267 -4.850282 -0.07626942 1.5028875
0.14073052 0.26647258 0.29109883 0.2725872 -0.38841015 -6.903342 0.51580393 -4.07751
-3.5324056 0.19232987 -4.9068365 0.8237759 0.6591981 -5.9098883 0.51083964 -1.0488285
0.08480691 -0.26581076 0.482059 0.62146294 -0.6405701 -6.438972 0.6892952 0.7904423
0.086281225 -1.2073619 1.2434849 -0.18993518 -1.4125394 0.27249986 -0.7799715 1.0534444
1.0147102 0.030119805 -0.52006817 -1.2124786 0.09490667 -0.6537375 -0.9680476 -1.0154792
-0.080503546 -0.4262764 -0.64523196 -0.2267474 -0.6630743 1.0434269 -0.9327687 0.60482484
0.2881965 -1.6038465 -0.2725153 0.064670965 0.68549556 -0.010705569 -1.8762116 -1.6282423
-0.14669698 0.16245392 -5.8292146 -1.1027541 -0.53097767 0.7092655 0.25608754 0.6196805
0.8402245 0.624151 -0.5836787 -2.4573941 -0.4096319 -0.8129678 -4.7289796 0.94399136
-2.477379 -4.212672 0.9539134 0.24826984 0.22803174 -0.5760155 -0.27119496 0.77566296
-2.5004046 -0.1767108 -2.2551997 0.68111384 1.0070112 -1.9531847 -3.0397468 -0.9960714
-3.5424864 -1.7002823 0.7290846 0.4293113 -1.3431585 0.26037195 0.89545345 0.4430391
00000000: 001a 16c0 1450 a8bf 39f5 683f 6835 d4bf
00000010: a21e 9c3f f2db a4bf 5951 25c0 2d23 18c0
00000020: c1bd db3e 3504 df3d f245 63bf 2eaf 063f
00000030: 84db 93c0 6165 e03e 4af4 c63c ad6b d13d
00000040: bf11 e23e 31b4 393f 4447 49c0 09fe 81c0
00000050: ad26 b2bf ff38 263e c20c 733e 5af2 03c0
00000060: 7fd3 8dbe e5b5 7ebe 70b6 7cbd 431d 2c3f
00000070: c003 89bf b9d1 a5be 4b64 2a3e a4aa 713e
00000080: cf07 0abf 7b36 403e b67f 5d3f 965c dbbe
00000090: c01c 523f 80d6 8fc0 78ed 35c0 cb65 2ec0
000000a0: 6a64 f2bf 05b4 e43d aa41 e6bc d4ee a0be
000000b0: 81a8 8abe 547f 0bbe 1889 113f fb9a 36bf
000000c0: 6227 0d3f 7e62 85bf b252 193f d456 20be
000000d0: 9fcd dc3e acd8 0bc0 03c3 07c0 595e 7a3f
000000e0: aae4 b4bf 5dcd 77bf 1a19 563f fe8f 63c0
000000f0: 729f 933e da9a 3a3f 0da9 0bbf 5f03 9b3d
00000100: eb17 1f3e e888 573f 9922 78c0 c028 1dbf
00000110: bfeb e33e a25a 8ebf 2e7c 8bc0 2a61 95bd
00000120: c556 acbf 0398 65c0 0793 7a3f 93a2 5a3f
00000130: aa7b bcbe 727e 5bc0 70fa b03e 24ad 853f
00000140: b96d 933f 19f2 163f 8fb3 2ec0 9c24 ed3e
00000150: 2e68 acbf e26a b0bf 0e86 b4bf 32b1 f23e
00000160: 8ac5 7bc0 7779 dabf 103c 5ec0 f9a4 563f
00000170: 4c2f 6dbb d857 123f d17b 423f 685c d0bf
00000180: 8e22 afbd 76a2 2ebe 510a 7bc0 5331 193f
00000190: 7ad8 683e 6ca0 1fbf 41c2 e2be 9ae9 2dc0
000001a0: fb96 d83e 7374 933e 3095 9fc0 dcdf 91c0
000001b0: e59c f83e 1bf4 343f eaa3 b0be dcd0 12c0
000001c0: 2a88 c3be a9a9 363d 993f a5be e138 49c0
000001d0: f459 4d3f 4e88 e13e b9ad 84c0 f7b2 6bbf
000001e0: d235 9abe 9f84 733f 57c6 1ec0 0136 4ebe
000001f0: a45c 09c0 f64b 2cc0 d4ac 2f3f b860 d6be
00000200: 36e8 2dc0 b11e 86c0 68a7 ea3e b957 993f
00000210: fb70 87be cfe6 61c0 f12d a63f e3b0 21c0
00000220: 9e23 c13c f5a0 1bc0 8572 13c0 71e3 6b3f
00000230: 6a0e 2b3f ac16 10c0 4c0e a6be f1a2 bdbf
00000240: 855a a7c0 838e babf d385 283f 6602 493f
00000250: 834d 863f b592 aec0 8eef 8ebe fa95 7d3d
00000260: e871 313f 5d10 8b3f d2f3 73c0 5bd3 09c0
00000270: 2f0f 50c0 8335 9bc0 2433 9cbd 9e5e c03f
00000280: a91b 103e 186f 883e e80a 953e 8d90 8b3e
00000290: b2dd c6be 2de8 dcc0 ba0b 043f f67a 82c0
000002a0: ef12 62c0 1ff2 443e ce04 9dc0 fae2 523f
000002b0: 35c1 283f ce1d bdc0 63c6 023f 0340 86bf
000002c0: 3faf ad3d 5918 88be 70d0 f63e 3218 1f3f
000002d0: 67fc 23bf 0f0c cec0 a675 303f 6d5a 4a3f
000002e0: 36b4 b03d d68a 9abf 832a 9f3f 5e7e 42be
000002f0: 17ce b4bf 1a85 8b3e 36ac 47bf 44d7 863f
00000300: 06e2 813f cfbd f63c 3023 05bf 8032 9bbf
00000310: 6e5e c23d 575b 27bf f8d1 77bf 39fb 81bf
00000320: 0bdf a4bd e640 dabe ec2d 25bf 7830 68be
00000330: 3dbf 29bf 038f 853f eec9 6ebf cdd5 1a3f
00000340: 7e8e 933e d84a cdbf 2087 8bbe 3672 843d
00000350: a37c 2f3f 6966 2fbc b427 f0bf 3e6a d0bf
00000360: bc37 16be 525a 263e ed88 bac0 0c27 8dbf
00000370: 27ee 07bf 6c92 353f e81d 833e 62a3 1e3f
00000380: f418 573f 5cc8 1f3f f86b 15bf f245 1dc0
00000390: 46bb d1be a81e 50bf cd53 97c0 6ba9 713f
000003a0: 618d 1ec0 36ce 86c0 ab33 743f 733a 7e3e
000003b0: 2781 693e c075 13bf 11da 8abe d991 463f
000003c0: a106 20c0 adf3 34be 3155 10c0 7a5d 2e3f
000003d0: bee5 803f f501 fabf 368b 42c0 89fe 7ebf
000003e0: 19b8 62c0 daa2 d9bf 4aa5 3a3f b1ce db3e
000003f0: 9eec abbf 794f 853e 703c 653f 05d6 e23e

l3.bias f4 [47]
0.06327919 -0.26639077 -0.17059168 -0.034203682 -0.03125071 0.028646033 -0.535522 0.4569634
-0.25971588 -0.459495 0.22342595 -0.114709765 0.1970616 0.18278053 0.065677956 -0.23406012
0.33444163 -0.18762873 0.63203317 0.62312967 0.4690594 0.4028034 0.5612576 -0.33699593
-0.4920173 -1.0199562 0.12093692 -0.08060553 -0.37308612 -0.35562322 0.2706053 0.047025207
-0.5112867 -0.90706706 0.0051882416 -0.22479674 -0.25559717 0.09749672 -0.13570637 0.13704593
1.033237 -0.07916856 0.321479 -0.85262096 0.70560193 -0.36825883 -1.2289523
00000000: 8598 813d 5f64 88be 96af 2ebe 2919 0cbd
00000010: bf00 00bd 16ab ea3c f817 09bf 1bf7 e93e
00000020: 7bf9 84be ee42 ebbe c6c9 643e f4ec eabd
00000030: 84ca 493e d22a 3b3e 2a82 863d 75ad 6fbe
00000040: ef3b ab3e bf21 40be edcc 213f 6d85 1f3f
00000050: 8e28 f03e 3f3c ce3e 94ae 0f3f bb8a acbe
00000060: b1e9 fbbe ed8d 82bf c7ad f73d 8314 a5bd
00000070: 2505 bfbe 3f14 b6be c78c 8a3e 819d 403d
00000080: afe3 02bf 8c35 68bf 2002 aa3b 1e31 66be
00000090: a2dd 82be 5cac c73d 9cf6 0abe c555 0c3e
000000a0: 1c41 843f 2023 a2bd e598 a43e 5e45 5abf
000000b0: 54a2 343f 6c8c bcbe 4f4e 9dbf
